data.pth (torch, 5079 bytes, 6 tensors)

l1.weight f4 [8, 57]
000000 7d ce 9d 3e 5d 47 38 3e 5c 21 8b 3e 10 f0 3c 3f
       0.308216 0.17995973 0.2717389 0.73803806
000010 45 05 f6 3e b3 b7 06 3f 92 ae 33 3f ee af 06 3f
       0.48050895 0.5262405 0.7018825 0.526122
000020 a3 82 1b bf fd 18 e2 3e 9e 20 34 3f f8 d7 a3 bd
       -0.6074621 0.4415969 0.7036227 -0.08000177
000030 f0 ef fc bd c9 29 a5 3e d7 83 be 3e dc de 0a 3e
       -0.12350452 0.32258442 0.3720996 0.13561577
000040 2e d9 1b bf ea 42 0e 3f 94 ed 0f 3f 44 88 1d 3f
       -0.60878265 0.5557085 0.5622189 0.6153605
000050 ec 4b 31 3f 1c 78 4b be 5d 76 ca 3e 57 de 4e 3e
       0.6925647 -0.19870037 0.3954343 0.20202003
000060 2f 88 12 3f 4b 24 bd 3e 39 d6 9f 3e 24 4d 03 bf
       0.5723905 0.36941752 0.31218126 -0.5128958
000070 12 d5 5c be b4 fe 5c be 11 36 c3 3e 8a f6 aa bd
       -0.21565655 -0.21581537 0.38127187 -0.08347805
000080 b9 93 65 be 4e 58 ae be 26 8a 99 3d a3 fc 1d bd
       -0.22419633 -0.34051746 0.07497053 -0.03857101
000090 50 a6 14 3f 61 a5 42 be 3d c7 81 be aa 4b f0 be
       0.5806627 -0.190084 -0.2534732 -0.46932727
0000a0 a2 dc 3d 3e 79 7d 96 3e fa 4f f6 3e c0 a7 fb 3d
       0.18541196 0.29392603 0.48107892 0.12287855
0000b0 7a f6 2a bd 23 67 e7 3e e6 87 8f 3e bc 8e 7e 3c
       -0.041738965 0.45195875 0.2803337 0.01553696
0000c0 74 e1 5a 3e 38 84 41 3f 06 cc 9d 3e 29 c5 3d bd
       0.21375066 0.75592375 0.3081972 -0.046330605
0000d0 10 63 9f bd a5 81 52 3d a1 49 36 3e 76 c8 d2 be
       -0.077825665 0.05139317 0.17801525 -0.41168565
0000e0 da ad ce 3e f2 76 85 3e d2 5b 55 3d 5c e6 44 3e
       0.40367013 0.2606731 0.05208952 0.192285
0000f0 24 d3 a0 3d 47 55 d5 3e e0 22 11 3f 5c c2 66 be
       0.07852772 0.41666624 0.5669384 -0.2253508
000100 50 0d b9 be 4e 8e 90 3e 49 21 d5 be ac bc 18 3f
       -0.3614297 0.2823357 -0.41626957 0.5966289
000110 13 1a a3 3e ae 8d 1e 3f 64 61 ac 3e 56 bd 8f be
       0.3185583 0.61934936 0.33668053 -0.2807414
000120 fa 03 8b 3d eb a6 49 3e 62 ad cb be be d3 a1 be
       0.06787868 0.1969258 -0.39780718 -0.3160686
000130 a1 10 c7 be 0e 9e bb be ea b1 89 3e b7 a7 1c 3f
       -0.38879874 -0.36644024 0.2689355 0.6119341
000140 a9 97 9b 3e ce 99 f3 3e 9f 02 15 3f 28 4c 94 be
       0.30389145 0.4757828 0.58207124 -0.28964353
000150 7a 71 f7 bd e2 5f 80 3f 88 ed 73 bd 3c 33 e4 bd
       -0.12082191 1.0029261 -0.0595527 -0.11142585
000160 b0 9c 83 3e f4 43 b3 3d 80 69 4f 3f c0 22 a5 3e
       0.2570548 0.087531954 0.81020355 0.32253075
000170 c8 38 19 3f 30 2c 03 3f 44 b7 05 3e 3f a1 12 3f
       0.59852266 0.512393 0.13058192 0.5727729
000180 c4 ea 2b bd a6 e2 a7 3e 5d ba aa 3e 62 21 eb 3e
       -0.041971937 0.32790107 0.3334531 0.45923907
000190 fd cc b9 3e 88 f0 dd 3d cf 4a f4 be c2 65 30 be
       0.36289206 0.10836893 -0.47713324 -0.17226318
0001a0 c8 3f 53 3e db b2 0c 3e bc 05 2f 3f 4a 82 d0 3e
       0.206298 0.13740103 0.68368125 0.40724403
0001b0 1f e6 96 3e e5 52 73 3e 1a f9 b1 3e 2a 33 17 3e
       0.29472443 0.2376209 0.34760362 0.14765611
0001c0 4c 23 fa 3e b7 e1 c4 be d8 a2 91 3d be 10 98 3e
       0.48855054 -0.38453457 0.07111138 0.29700273
0001d0 cd 82 21 bd 11 91 b7 3e 3a 17 49 be 56 cd 7f be
       -0.039431382 0.35852864 -0.19637766 -0.24980673
0001e0 4f 5a 41 3e 2b 56 42 bd b5 83 31 3f f3 86 98 3d
       0.18882106 -0.047445457 0.69341594 0.074476145
0001f0 04 c0 6a be 9a d8 65 3c 25 9e c4 bd 2a 28 67 3c
       -0.2292481 0.014028693 -0.09600476 0.014108697
000200 d3 84 a0 3e 06 05 17 3d 57 19 27 3f 09 50 5d be
       0.31351337 0.036870025 0.6527304 -0.21612562
000210 7e 37 1f 3f 05 a6 52 be 51 5f 91 be 51 7c a7 be
       0.6219405 -0.20571144 -0.28393033 -0.32712033
000220 9b 67 bc bd 9d ed ef 3b 3c d1 6d bd 3f d4 67 be
       -0.09199449 0.007322027 -0.05806087 -0.22639559
000230 23 99 52 3e e3 d5 d0 bd 64 b4 b7 bd 87 5c 81 3d
       0.2056623 -0.10197046 -0.08969954 0.06316476
000240 36 5b de 3e 37 6e e7 bd 26 3a 7a bd e8 ff fd be
       0.43428963 -0.11300319 -0.06109061 -0.49609303
000250 4b 44 bf bd e0 9e 1c 3d 41 db 73 be 8d 75 a3 3b
       -0.09339198 0.038237453 -0.23814107 0.0049883784
000260 a0 c3 b5 be 91 ea 91 bd a6 ce c1 3d 10 ed 07 be
       -0.35500813 -0.07124818 0.09463243 -0.13274026
000270 ad 91 e1 bd d7 5a a2 bd 84 1b fb 3d 05 3c 5a 3f
       -0.110141136 -0.079274826 0.122611076 0.8524783
000280 20 08 de 3e 8c db 30 bd 98 ad 11 bc e7 ec 33 be
       0.43365574 -0.043178126 -0.008891486 -0.1757084
000290 2e 4e 7a be d1 7b b2 3d 5a 8f 16 3d 00 29 0f be
       -0.24443886 0.08715022 0.036757804 -0.13980484
0002a0 fc ff c7 3d 00 97 65 be cf 12 10 3f 58 79 fd bd
       0.09765622 -0.22420883 0.562787 -0.1237666
0002b0 2c 0a ce bd 58 c5 a2 3d c9 11 9d 3d d0 49 a2 bd
       -0.10060534 0.079477966 0.07669408 -0.07924235
0002c0 41 8e 04 bd b3 86 9c 3c 38 df 62 bc f8 08 35 3d
       -0.032362226 0.019107198 -0.013847165 0.044198006
0002d0 96 88 25 3d 91 b8 b7 3b 33 35 ea bd a3 c5 bd 3b
       0.04041346 0.005606719 -0.11435928 0.0057913824
0002e0 79 ea a0 3d a0 bd 87 3d 72 0d 4d 3d 20 22 04 3c
       0.07857222 0.06627965 0.05006165 0.008064777
0002f0 4c d2 c1 3d 75 11 8e bd 04 2d 69 bd 68 10 af bc
       0.09463939 -0.069369234 -0.056927696 -0.021370128
000300 9e be 8e 3d 75 18 54 bd c5 6a 56 3b 9e 1f b8 3c
       0.06969951 -0.051781137 0.0032717448 0.022476014
000310 7d e6 e2 3c e8 be 99 bc 0c f9 82 3d 97 8c 5a bd
       0.027697796 -0.018767789 0.06395158 -0.053356733
000320 d6 63 97 3d d0 e0 db 3c 39 6a e8 bc 7d a1 c2 bd
       0.07392089 0.026840597 -0.028370963 -0.09503458
000330 39 48 de bd 7c 9e f4 3c d9 ff b3 bc ce 10 d7 3d
       -0.10853619 0.029860727 -0.021972584 0.10501252
000340 4c c3 42 3d b2 2e b6 bc 00 8e 23 3b 63 ad c6 3c
       0.04754953 -0.022239063 0.0024956465 0.0242526
000350 13 3f 04 be 80 e4 c1 3a 35 87 c4 3d 9e 68 ef 3d
       -0.12914686 0.001479283 0.09596101 0.11689876
000360 c4 49 6f bd 7e 0c d2 bd 22 d2 b9 bd 75 0d 38 bd
       -0.058419958 -0.10256289 -0.09073283 -0.04493471
000370 15 20 4e 3d a4 97 fb bc a5 b6 8b 3b 40 7e b3 3b
       0.050323565 -0.030711956 0.0042637163 0.0054776967
000380 1b a0 a6 3d 13 df e8 3d b8 c6 f8 bc a9 d3 81 bd
       0.081360064 0.11370673 -0.030368194 -0.06339199
000390 ce 9b a6 bd b2 2f 1f 3f cb a8 9a bd 45 a9 34 be
       -0.08135186 0.6218215 -0.07551726 -0.17642696
0003a0 5e d2 25 be 15 60 92 be 63 0e 16 3f 34 3d 42 3f
       -0.1619353 -0.2858893 0.586157 0.7587464
0003b0 ca 0d 23 bf c0 3b 4c 3f 7c 26 0d bf 49 58 2e be
       -0.63692915 0.7977867 -0.5513685 -0.17025866
0003c0 10 fe e1 be 97 22 c6 3d 35 85 25 3f c2 69 0b 3f
       -0.44139147 0.09674566 0.6465638 0.5445825
0003d0 59 0b 23 bf 49 04 7f 3f 85 27 e1 3e 19 fb 61 3f
       -0.6368919 0.99615914 0.43975464 0.8827377
0003e0 be a5 44 3f 4d 34 ff 3e fa a9 4d be 30 8e 33 bd
       0.768154 0.4984459 -0.20084372 -0.043836772
0003f0 d3 be c3 be d3 10 2a 3e a1 be 02 3f a4 23 bd be
       -0.38231525 0.1660798 0.51072127 -0.36941254

l1.bias f4 [8]
000000 e9 76 23 3f 99 3c f4 3e 27 92 61 3f 2b 44 f6 bd
       0.6385332 0.47702482 0.88113636 -0.12024721
000010 63 09 23 3f 0a 1a 47 3f 9f 4c 49 3f 58 5a 3f 3f
       0.636862 0.7777411 0.7863254 0.7474723

l2.weight f4 [8, 8]
000000 2b 14 6b 3f c1 10 4b 3f c0 3e e9 be a8 d5 b6 3d
       0.9182765 0.7932244 -0.45555687 0.089274704
000010 6b ae 18 bf 52 65 2b bf e6 1f cb 3e cc c2 ad be
       -0.5964114 -0.6695148 0.39672774 -0.3393768
000020 09 76 72 3f 87 4c 92 bf 34 89 bb 3f 8e c4 25 3e
       0.9471136 -1.1429604 1.4651246 0.16188261
000030 f8 d4 89 3e 5c ba 1f 3e ac d7 14 3f bc e9 bc 3f
       0.26920295 0.15598434 0.5814159 1.475883
000040 c6 5d 48 3f f7 eb bf bd 71 a3 af b9 11 d1 78 3e
       0.78268087 -0.093711786 -0.00033500374 0.24298503
000050 f0 29 d9 3f 07 11 c7 3f 54 62 04 3d 6a 17 04 bf
       1.6965923 1.5552071 0.032320336 -0.5159823
000060 52 e6 16 3e 10 41 ab bd 17 10 ae be 72 fe 9d be
       0.14736298 -0.08362019 -0.3399665 -0.3085819
000070 e0 57 74 3c d3 c7 a0 be e3 40 5f be 3e 13 a1 be
       0.014913529 -0.31402454 -0.21802096 -0.31459993
000080 44 f2 d3 bd 50 6d 53 bd 03 25 8d be 19 2e 67 be
       -0.10348943 -0.05161792 -0.275673 -0.22576179
000090 f6 f5 94 be e6 fb 6a 3e b8 0f 92 be 5d 28 5c be
       -0.29093903 0.22947654 -0.28527617 -0.21499772
0000a0 60 87 79 3d 14 4c 57 be 10 bd 81 be d0 46 c7 3d
       0.06092012 -0.21025115 -0.25339556 0.09730303
0000b0 88 39 0f be ea 74 ad be 95 ca ad be 04 7b 87 bd
       -0.1398679 -0.3387826 -0.3394362 -0.0661526
0000c0 68 3b 9e 3e 9b 46 36 3f d8 43 be bd de 8a a4 3d
       0.30904698 0.71201485 -0.09290284 0.08034299
0000d0 c5 30 95 bf 3d 26 5f bf 6f fa 7a 3f 63 dd 9d 3e
       -1.1655508 -0.8716772 0.9803838 0.30832967
0000e0 63 ea 8f bf 41 f6 c2 3e 03 2b 4b 3e 74 eb 09 3d
       -1.1243404 0.38078502 0.19840626 0.03367181
0000f0 e0 5e af bd 48 c4 52 3e 10 90 a3 3f 98 db bb 3f
       -0.08563018 0.20582688 1.2778339 1.467639

l2.bias f4 [8]
000000 48 39 6a 3d 97 7f 35 3f ed 37 27 3f f1 b3 b2 be
       0.057183534 0.7089781 0.6531971 -0.3490291
000010 fd 88 a9 be 88 e3 70 bd 98 b7 08 3f 1c 3f dc 3e
       -0.33112326 -0.05881074 0.5340514 0.430169

l3.weight f4 [6, 8]
000000 be a7 7d bf 4d b7 69 3e e1 ec c5 bf 1a 65 0e be
       -0.9908408 0.2282383 -1.5462915 -0.13905755
000010 9f 2d a5 3e 76 b7 46 3e 5b 42 97 3d 1c 3a 2b 3f
       0.3226137 0.19405922 0.07385703 0.6688554
000020 1d 19 21 bf 50 d0 90 3d 22 50 55 3f c6 d4 2b 3e
       -0.62928945 0.070709825 0.833254 0.16780385
000030 4a 6c 3a 3e 60 97 a3 3d 6e 31 11 bf 1d 7f ef bf
       0.18205371 0.07987857 -0.5671605 -1.8710667
000040 6d 9a 22 3f 4c 60 41 bf 73 e8 0a bf 2d f9 05 be
       0.63516885 -0.7553756 -0.5426094 -0.13083334
000050 46 7a 47 3e ec 4c ac 3d f1 94 3c 3f 2c 8f 98 bf
       0.19480237 0.08413109 0.73664767 -1.1918693
000060 a3 1f a8 bf 86 6a b1 bf 0c 7e 1d 3f cc 6a 00 3e
       -1.3134655 -1.3860633 0.6152046 0.1254074
000070 8c a5 df 3d 30 b6 41 bd a9 59 7b bf ff a3 ed 3e
       0.109202474 -0.04729289 -0.98183686 0.46414182
000080 cd 79 a7 be b5 2c c1 bf fa c1 46 bf 50 d7 e0 3d
       -0.32710114 -1.5091769 -0.77639735 0.109785676
000090 3e ba 97 be 78 57 95 bd 21 42 f2 3e b7 e0 63 3f
       -0.2963428 -0.07292074 0.47316077 0.8901476
0000a0 9b a4 78 bf e4 25 25 3f 7b d7 99 be 3d 18 ad 3e
       -0.9712617 0.6451094 -0.3004721 0.33807555
0000b0 ae 36 11 be b2 d7 47 3e 58 5d b5 bf 2f 44 17 be
       -0.14181015 0.19515875 -1.4169111 -0.14772104

l3.bias f4 [6]
000000 09 1e 4b bc 47 6e 12 3f f6 95 a0 3c 75 f7 0b 3d
       -0.012397298 0.5719952 0.019602757 0.03417154
000010 df 00 fe bc 45 d5 9e be
       -0.031006275 -0.31022087
