data.pth (torch, 4055 bytes, 6 tensors)

l1.weight f4 [8, 33]
0	0x3ed8ff80	0.4238243
1	0x3f1b8880	0.6075516
2	0x3f811c8c	1.0086837
3	0x3fc1f251	1.5152074
4	0x3f4de307	0.8042454
5	0x3ccb4fd1	0.024818333
6	0x3f030fbd	0.5119589
7	0x3f4df103	0.8044588
8	0x40148d68	2.3211308
9	0x3e0de4a3	0.13856749
10	0x3fac660d	1.3468643
11	0x3fbee4e5	1.4913603
12	0x3f8e71c5	1.112847
13	0x3f7d8f88	0.99047136
14	0x3f084f84	0.5324633
15	0x3f273c6e	0.65326583
16	0x3f3c5465	0.73566276
17	0x3f532861	0.8248349
18	0x3f126854	0.5719044
19	0x3f36ae5c	0.713598
20	0x3ed6d537	0.41959545
21	0x3f21fcc7	0.6327633
22	0xbf656a82	-0.89615643
23	0x3f1d3ae8	0.6141801
24	0xbdc20a5e	-0.09474634
25	0x3f579a83	0.8422014
26	0xbee90cc8	-0.45517564
27	0x3f367e6d	0.7128666
28	0x3ee836f5	0.4535443
29	0x3f3f4176	0.7470926
30	0x3fcf0632	1.6173766
31	0x3f22dda9	0.63619477
32	0x3edc587d	0.4303626
33	0x3f1f512a	0.6223322
34	0x3e50257e	0.20326802
35	0x3f447e22	0.76754963
36	0x4030871e	2.758247
37	0x3d50364b	0.050833028
38	0xbecf0c3b	-0.4043902
39	0x3f051ff3	0.52001876
40	0x3e7961a3	0.24353652
41	0x405f4459	3.4885466
42	0xbd62525e	-0.055254333
43	0x3e3d3e1c	0.18480724
44	0x3ea2b3fc	0.31777942
45	0x3ef1900d	0.47180215
46	0x3fb0e55d	1.3819996
47	0x4007cd23	2.1218956
48	0x3fec1a19	1.8445464
49	0x3f50ee90	0.8161402
50	0x3fcd8c76	1.605849
51	0x400396bd	2.0560753
52	0x3fb31cf9	1.3993217
53	0x3fca99c5	1.5828177
54	0x3fa4684f	1.2844332
55	0x3e9aac0d	0.3020939
56	0x3fab9f0d	1.3407913
57	0xbebf66b5	-0.37383047
58	0x3fc469ce	1.5344789
59	0x40034231	2.050915
60	0x3ff2eb27	1.8978013
61	0x3e110c0e	0.14164755
62	0x3f075cbd	0.5287588
63	0x400971c4	2.1475687
64	0x3fedde9f	1.8583564
65	0x3f5703f9	0.83990437
66	0x3f90593d	1.1277233
67	0x3f596aab	0.8492839
68	0x3fa46485	1.2843176
69	0x4019a5fb	2.4007556
70	0x3f9d6aeb	1.2298254
71	0xbf18d5d1	-0.5970126
72	0x3f599bee	0.85003555
73	0x3f80af6a	1.0053532
74	0x404425b6	3.0648017
75	0x3e902400	0.28152466
76	0x3ff22d22	1.8920023
77	0x40146241	2.318497
78	0x3ffaf42a	1.9605763
79	0x3fd2eb74	1.6478105
80	0x3f8758cf	1.0573977
81	0x3f9901f6	1.1953723
82	0x3f831b29	1.0242664
83	0x3fa1628e	1.2608202
84	0x3ef39718	0.47576213
85	0x3f91c85e	1.1389272
86	0x3faa1d9f	1.329029
87	0x3fae3bad	1.3611962
88	0x3e0dbebb	0.13842289
89	0x3f6c6964	0.92348313
90	0x3ec0f1ae	0.37684387
91	0x3fb52e16	1.4154689
92	0x3fddac01	1.7318116
93	0x3f79811a	0.9746262
94	0x3f8b0ff2	1.0864241
95	0x3eb35c42	0.35031325
96	0x3ce1abf1	0.027547808
97	0x3f86749c	1.0504336
98	0x3f9c7804	1.2224126
99	0x3f712742	0.9420053
100	0x3f36e264	0.71439195
101	0x3f93c72a	1.1545155
102	0x40212e43	2.5184486
103	0x3f87aabb	1.0598978
104	0x3f507eca	0.81443465
105	0x3f7f4062	0.99707615
106	0x3f915099	1.1352721
107	0x4059d9e1	3.4039233
108	0x3dcc05b4	0.09962025
109	0x3ff8dd98	1.9442625
110	0x4004291d	2.0650094
111	0x3ff75f38	1.9325933
112	0x3fab0aeb	1.3362707
113	0x3f3a175b	0.7269189
114	0x3fcf16e5	1.6178862
115	0x3f44f375	0.76933986
116	0x3f86e7a1	1.0539438
117	0x3f0ba677	0.5455088
118	0x3f66104e	0.8986863
119	0x3ec9fd73	0.3945118
120	0x3f59beb4	0.85056615
121	0x4011a5ee	2.2757525
122	0x3f498279	0.7871471
123	0x3edd576f	0.4323077
124	0x3f3de385	0.7417529
125	0x3f97e4fb	1.1866754
126	0x3fba84c8	1.4571772
127	0x3f67f77f	0.90612024
128	0x3f72c049	0.94824654
129	0x3cd47b09	0.025937574
130	0x3fb3d95a	1.4050705
131	0x3f9ae102	1.2099917
132	0x3daf33f6	0.08554833
133	0xbe61d4b5	-0.22053798
134	0x3f077ce4	0.5292494
135	0x3f464b62	0.77458775
136	0x3cd8321a	0.026391078
137	0xbefe92f4	-0.4972149
138	0x3db05cda	0.0861146
139	0x3e2f1cb8	0.17100799
140	0x3fdd6cbb	1.7298807
141	0x3fd8c48d	1.6934983
142	0x3d310a62	0.043222792
143	0x3ed4eee3	0.41588506
144	0x3e1798b2	0.14804342
145	0x3f897343	1.07383
146	0x3f6fd79d	0.93688375
147	0x3f842757	1.0324506
148	0x3e83e842	0.25763136
149	0x3eaa159b	0.3321961
150	0x3faca29e	1.3487127
151	0x3f32d088	0.69849443
152	0x3f6ba0ba	0.92042124
153	0x3f627090	0.88453007
154	0xbf5bacf8	-0.85810804
155	0x3f495eba	0.78660166
156	0xbf2be318	-0.6714339
157	0x3f0b50df	0.54420274
158	0x3f97cd4d	1.1859528
159	0x3f477160	0.7790737
160	0xbdb35c2a	-0.08757813
161	0x3f1df6a1	0.6170445
162	0xbcf14eca	-0.029456515
163	0x3f81c67c	1.0138698
164	0xbedcad2b	-0.43100867
165	0x3f4da9f9	0.8033748
166	0x3eddda3f	0.4333057
167	0x3f814e58	1.0102034
168	0x3f1081a1	0.564478
169	0x3f7dba37	0.99112266
170	0x3f620a33	0.8829681
171	0x3f1fa5dc	0.62362456
172	0x3f6b2bad	0.9186352
173	0x3faf7051	1.3706151
174	0x3fe06cc7	1.7533196
175	0x3ff74bea	1.9320042
176	0x4007211f	2.1113966
177	0x3fe5dab5	1.7957369
178	0x3fc5ecf2	1.5462935
179	0x3f3cb3c2	0.7371179
180	0x3fbea99a	1.4895508
181	0x3f092176	0.5356668
182	0x3e92a655	0.28642526
183	0x3fa351fe	1.2759397
184	0x3f8560d1	1.0420171
185	0x3f987537	1.1910771
186	0x3fb74d4c	1.4320464
187	0x3fc1548d	1.5103928
188	0x3f8a54d5	1.0807139
189	0x3ef158bf	0.4713802
190	0x3ed6175b	0.41814694
191	0x3f72a696	0.9478544
192	0x3fc7a70e	1.5597856
193	0x3eee8f49	0.46593693
194	0x3f4b05d3	0.7930576
195	0xbd902064	-0.07037428
196	0x3faf01ce	1.3672426
197	0x3f68a1fd	0.90872175
198	0x3f475428	0.7786279
199	0x3f8693f1	1.0513898
200	0x3f9b2550	1.2120762
201	0x3ddb7a1a	0.107166484
202	0x3f8f16c7	1.1178826
203	0x3e7e0d98	0.24809873
204	0x3f701b16	0.9379133
205	0x3f99f1f5	1.2026964
206	0x3f4c98d9	0.79920727
207	0x3ff28c1b	1.8949007
208	0x401351ca	2.301867
209	0x40231dde	2.548698
210	0x4026dbef	2.6071737
211	0x3fe7f7da	1.8122513
212	0x3f4b9568	0.7952485
213	0x3fd06c05	1.6282965
214	0x3f6cb62f	0.9246549
215	0xbe35b0f2	-0.1774328
216	0x3f75784f	0.958867
217	0x3f3a0ecd	0.72678834
218	0x3f40aa0f	0.7525949
219	0x3f7225c8	0.945889
220	0x3e645460	0.22297812
221	0x3f1b64f6	0.6070093
222	0x3d9c0f38	0.0762009
223	0x3c0a7e46	0.0084529575
224	0xbf56fcfa	-0.8397976
225	0x3fabd881	1.3425447
226	0x3f6fa9dd	0.93618566
227	0x3f6debe9	0.92938095
228	0x3fb8ba0a	1.4431775
229	0x3faba5bc	1.3409953
230	0x3f5c6766	0.86095273
231	0x3f7c108f	0.98462766
232	0x3f75c5e3	0.96005076
233	0x3f624cc8	0.8839841
234	0x3fc7bebf	1.5605086
235	0x3f79f6c8	0.97642183
236	0x3f468549	0.77547127
237	0x3f2cd535	0.6751283
238	0x3f91a55f	1.1378592
239	0x40208f78	2.5087566
240	0x3f02252a	0.5083796
241	0x3fd4f6e3	1.6637844
242	0x4002c334	2.0431643
243	0x3ff93bc5	1.9471365
244	0x3faffd18	1.3749113
245	0x3f8222bc	1.016685
246	0x3fc7a8c5	1.5598379
247	0x3f660bc9	0.8986173
248	0x3f6a9317	0.9163069
249	0x3f746e3d	0.9548071
250	0x3f973731	1.1813718
251	0x3ed47781	0.41497424
252	0x3f33a0d4	0.7016728
253	0x400d2994	2.2056627
254	0x3faa7f6f	1.332014
255	0x3ef7c2f5	0.48390928

l1.bias f4 [8]
0	0x400da249	2.21303
1	0x405d5639	3.4583876
2	0x4053420e	3.3009067
3	0x403acd1c	2.918769
4	0x3feb8c2b	1.8402151
5	0x4019ae55	2.4012654
6	0x402bc57f	2.6839292
7	0x4034ef63	2.827111

l2.weight f4 [8, 8]
0	0x403f8da9	2.9930212
1	0x4075532d	3.8332016
2	0x406ff143	3.7491004
3	0x403c22f5	2.9396336
4	0x3fcb1b30	1.5867672
5	0x3f92817a	1.1445763
6	0x4026578b	2.5990932
7	0x40135e18	2.302618
8	0x3f82da5b	1.0222887
9	0x408a1223	4.314714
10	0x402f03ee	2.7346148
11	0x40807992	4.01484
12	0x3f9ebf92	1.2402213
13	0x4021363f	2.518936
14	0x3eb31ef8	0.34984565
15	0x403f7a5f	2.991844
16	0x3f11c04b	0.5693404
17	0x3ee91a14	0.4552771
18	0x40070582	2.1097112
19	0x40302394	2.7521715
20	0xbebd6f85	-0.36999145
21	0x400af74f	2.1713445
22	0x4026a564	2.6038446
23	0x4023c512	2.5589032
24	0x3c2431f1	0.010021673
25	0x3ee8266b	0.4534181
26	0x402cf14a	2.702227
27	0x4009d8de	2.1538615
28	0x3fcb64a0	1.5890083
29	0x4024ca45	2.5748456
30	0x4021bf71	2.5273097
31	0x400973a4	2.1476831
32	0x3dbe8e3c	0.09304473
33	0xbdf9a548	-0.12189728
34	0xbe8da071	-0.2766147
35	0x3ea812d3	0.32826862
36	0xbe531829	-0.20614685
37	0xbe3d302a	-0.18475404
38	0x3dcc6ac8	0.099813044
39	0xbe850c16	-0.25985783
40	0xbe83df30	-0.25756216
41	0x3d706498	0.058689684
42	0xbe66a3ec	-0.22523469
43	0x3c5865c0	0.013207853
44	0xbe9dedbc	-0.3084544
45	0xbe6197fc	-0.22030634
46	0xbd0be018	-0.03414926
47	0x3b9734c0	0.0046144426
48	0x3fbe9075	1.4887835
49	0x40287dea	2.6326852
50	0x3f7a9552	0.97884095
51	0x3f58e57d	0.8472517
52	0x3fcc0669	1.5939456
53	0x40414aa5	3.020181
54	0x40291388	2.641817
55	0x3fbfcf03	1.498505
56	0x3fbb24ec	1.4620643
57	0x3fa6fd05	1.3045965
58	0x3f266b44	0.65007424
59	0x40013c0f	2.0192907
60	0x3db6b447	0.08921104
61	0x3fb79114	1.4341149
62	0x4025b463	2.589135
63	0x4008ec83	2.1394355

l2.bias f4 [8]
0	0x3f8c3dd5	1.095637
1	0x3f7228e3	0.9459364
2	0x3f26d1a7	0.65163654
3	0x3f336993	0.7008297
4	0xbeb3d7af	-0.3512549
5	0xbe7dd120	-0.24786806
6	0x3f8b7aa5	1.0896803
7	0x3f64041f	0.8906879

l3.weight f4 [6, 8]
0	0x3e59d489	0.21272482
1	0xbff2fe77	-1.8983907
2	0xbfed53f5	-1.8541247
3	0xc04ab7ea	-3.1674752
4	0xbe9f47f4	-0.31109583
5	0x39f57400	0.00046816468
6	0xc05c0385	-3.4377148
7	0xbf1c4fa9	-0.6105905
8	0xbf82060c	-1.0158095
9	0xc07a8d33	-3.914868
10	0x3e811aaa	0.25215656
11	0xbfa03e0e	-1.2518938
12	0x3e97712f	0.2957854
13	0x3e926445	0.28592125
14	0xc02858e0	-2.6304245
15	0xbee5c41d	-0.44876185
16	0xc054648b	-3.3186367
17	0xc028f2ef	-2.6398275
18	0xbfe5b8b0	-1.7946987
19	0xbe2942f0	-0.16529441
20	0xbdeab48a	-0.11460216
21	0xbda3eaa8	-0.080037415
22	0x3ebb5c83	0.36594018
23	0xbf971fcf	-1.1806582
24	0xc08bc522	-4.367814
25	0xbf3c8c77	-0.7365183
26	0xbe8cd534	-0.2750641
27	0xbf72ed04	-0.9489291
28	0x3d885658	0.06657094
29	0x3e598afe	0.21244428
30	0xbfbb9d9c	-1.4657474
31	0xbf938e00	-1.152771
32	0xc042b08d	-3.0420258
33	0xbf2c6f40	-0.67357254
34	0xc00f3c37	-2.2380502
35	0xbf024c8b	-0.50898045
36	0xbe9211d4	-0.28529227
37	0xbe3d0de7	-0.18462335
38	0xbf78f4b1	-0.9724837
39	0xc023691e	-2.5532908
40	0xbf11d9df	-0.5697307
41	0xc06b3da9	-3.6756384
42	0xc0089ac5	-2.1344464
43	0xc046a303	-3.1036994
44	0xbeab8a9a	-0.33504182
45	0x3eab2153	0.33423862
46	0xbe76ed7b	-0.24114029
47	0x3e863f99	0.26220396

l3.bias f4 [6]
0	0x3ebf8369	0.37404945
1	0xbebef280	-0.37294388
2	0x3d940d5f	0.07229113
3	0xbee43379	-0.4457052
4	0xbe84199b	-0.25800785
5	0x3c446d6d	0.01198898
