data.pth (torch, 5079 bytes, 6 tensors)

l1.weight f4 [8, 57]
00000000: a74c 353e 00ec 02bf ad31 813e 9fc2 883e
00000010: 4b5e 5a3e e576 293f 4afc abbe f90a a3be
00000020: 78bd 20be a829 0cbc d9cc 293f ebd6 b73e
00000030: 0772 173f db19 303e 2070 d9b9 3770 2fbe
00000040: d0a8 20be bf1d 21be e6f0 87bd a677 20be
00000050: 65c4 20be 1580 433d deaf f63e 5892 553e
00000060: 55fa 823e 2d3f 173e 80d9 81bc 814c a53d
00000070: ea0a 853f dcf8 01bf 3236 0abe 72ea 093e
00000080: 9cf4 bc3e c902 d13e ab2e 7c3e 315f ca3e
00000090: c9cc 953e 048c ad3e 5f9b e73e 2509 13be
000000a0: f964 9f3c bed7 d13d 466b 693e dbc4 3d3d
000000b0: e612 223e 43b5 5b3e b987 093e 46b4 833e
000000c0: 59bb f33d a8a5 483d 3f83 e73e 300d 883e
000000d0: 6a8e 33be 8689 febd 020c a43d 482e 63be
000000e0: 779d e83d be0a 8a3d 8c57 ed3d fa4d 4c3e
000000f0: eafd 903e fa7e bb3e 1ed6 083f 44f7 0dbf
00000100: df5f 24bf a5d2 223f 6e7b a2be ca47 053f
00000110: c987 273e faf2 2cbe 9a90 3e3e d1d8 6abe
00000120: 48c2 02be 8653 193f ac27 1bbf b697 b3be
00000130: 241d 1bbf 5e1d 1bbf 172c 293e 979b 7a3e
00000140: 2b08 b93c 1a65 793e d45e a33e 6dde c2be
00000150: d185 c93e 4b6d 4abf da13 d33e f49b 28be
00000160: f3ef ff3d 939e 86be 759f 303f a193 173e
00000170: 3c84 37be 26a6 b53e 18f2 17be 7fd1 253f
00000180: c933 0c3f e498 3c3e 4e43 193d 3b68 e43e
00000190: a91b 3a3e f741 643d 7bd9 30bf cc9f 5abe
000001a0: 0378 113c 2d5d 353d c3fb 2c3e 371a d53e
000001b0: baab cd39 5114 c83e 8d65 c63e ccd5 7e3e
000001c0: ad25 a43e cf47 ae3d 8d92 aa3c c23b 4a3f
000001d0: 88b0 483e 1c90 0a3f b91d a63d 197c 06be
000001e0: 9931 333e 7be9 183e 49d6 eebe 22fc b53e
000001f0: 9f4d f83d 43bc bdbd 56d7 e4be ba13 013e
00000200: e5cf 7c3d 9c42 ca3e 417b d6be 859a 003f
00000210: 31ed 113f a6d7 fb3e 673e fe3e 80f5 283e
00000220: de72 143e 72c9 553e 2c44 673e f71a 343e
00000230: 011b b53c e2f2 cebe 0dd9 59bf e4e5 103f
00000240: b8ca c13e 9d9b 14bd eaba b2be 2f29 7f3d
00000250: 171e 29bd a277 ecbe 8472 2d3e 654c a0be
00000260: efef 643e 3520 42be 2d5f b83c fc1f 1e3e
00000270: 5c65 783e 0f66 813d 7d67 5fbe fe52 803f
00000280: 4d6d c43e a21a 91bd 3482 4d3e fe59 d03d
00000290: cd11 65be e4c0 eabc d022 913e 7c77 df3e
000002a0: 1bf4 473e 1190 573e 4909 023f 5d3c bb3d
000002b0: 4977 5dbe ef68 cd3e 69c4 063f 9f6f db3e
000002c0: b9fc d33e 0db0 dbbe 1144 13be ee1d 80be
000002d0: bf5b 353c 70fd 363f e0b6 9d3e 25ed f73e
000002e0: 8535 a83d 50de f7bd a5fc 39be eec9 3fbe
000002f0: 69ac afbe 719a 2a3f 98bc afbe db46 afbe
00000300: 5c57 a6be e825 003f e414 313e b3f8 d23e
00000310: 012e 623c 2557 9dbd 87d8 34be ef72 833f
00000320: a07e 72be 3b31 fd3d 163a 4f3e 6045 a43e
00000330: 9493 ce3d 727e fe3d bcc2 323f 12f9 b93e
00000340: 480f 2a3e 9eb9 a33d 077e 4dbe cc61 943e
00000350: f8f8 ff3d e55a 853e 991d 1c3e 9f69 613e
00000360: f17a 193f a6d8 fe3e f86f 963e ade4 183e
00000370: 3b10 103f 59ec 903e dc41 a13e 6ddf 1dbe
00000380: 037a 453d a841 2e3e 7441 43be 4522 b73e
00000390: 487e 223e 3ad0 1b3e bf54 873e 71f6 953e
000003a0: 2258 c83e a0a3 0d3f 4382 e9be 30ba 55be
000003b0: dbc1 a73c 3c1b a0be 785f 213f 696e a63d
000003c0: da4c 603e 37c4 103e 1b56 56be 3c65 f83d
000003d0: 7c11 683d 7c38 44be f6b1 1cbe d813 44be
000003e0: d266 45be 3005 3a3e d34a db3e 0ab9 0e3c
000003f0: b0fa c73e 845a 9a3e 45f3 94be ffb2 edbc
0.17705022 -0.5114136 0.25233212 0.26710984 0.21325032 0.66197044 -0.3359092 -0.3184431
-0.15697277 -0.0085548535 0.663282 0.35906157 0.59158367 0.17197363 -0.00041473005 -0.1713265
-0.15689397 -0.15734003 -0.066377446 -0.15670642 -0.15699919 0.04772957 0.4818105 0.20856607
0.25581613 0.14770193 -0.015850782 0.080712326 1.0393956 -0.50770354 -0.13497236 0.1346834
0.36905372 0.40822437 0.24627177 0.3952575 0.292578 0.33895886 0.45235726 -0.14358957
0.019457327 0.10246228 0.22794828 0.046330314 0.15827522 0.21455865 0.1343068 0.25723475
0.11900968 0.048986107 0.4521732 0.2657256 -0.17534795 -0.12428574 0.08010103 -0.22185624
0.11358159 0.0674033 0.11588964 0.1995162 0.2831872 0.36620313 0.53451717 -0.5545542
-0.6420879 0.6360267 -0.31734794 0.52062666 0.16360392 -0.16889563 0.18609849 -0.22934271
-0.12769425 0.5989307 -0.6060741 -0.35076684 -0.6059134 -0.60591686 0.16520725 0.24473415
0.022586903 0.24354973 0.31908286 -0.38060322 0.39359906 -0.7907302 0.41226083 -0.16465741
0.124969386 -0.26292858 0.6899331 0.1480241 -0.17921537 0.35478324 -0.14838445 0.6477279
0.5476652 0.18417698 0.037417702 0.44610772 0.18174614 0.05572697 -0.6908185 -0.2135002
0.008878711 0.044278312 0.16892914 0.41621563 0.00039228593 0.39078 0.38749352 0.24886245
0.32059994 0.0850979 0.020821834 0.78997433 0.19598591 0.54126143 0.08111138 -0.13133277
0.17499389 0.14932816 -0.46647862 0.35543925 0.1212418 -0.09264424 -0.44695538 0.12605181
0.0617217 0.39503944 -0.4189091 0.5023578 0.5700255 0.49187964 0.49656984 0.16499901
0.14496943 0.20877627 0.225846 0.17588411 0.022107603 -0.4041968 -0.8509682 0.56600785
0.37849975 -0.036281217 -0.3490823 0.062295135 -0.04128846 -0.46185023 0.16938215 -0.31308284
0.22357152 -0.18957599 0.02250632 0.15441889 0.24257416 0.06318294 -0.21816821 1.0025327
0.3836464 -0.07085158 0.200692 0.10173415 -0.22370072 -0.02865643 0.28346872 0.43645847
0.19526713 0.2105105 0.5079542 0.09142373 -0.21627535 0.4011912 0.5264345 0.42858598
0.4140375 -0.42907754 -0.14381434 -0.25022835 0.011069237 0.71480465 0.30803585 0.48423114
0.08213333 -0.121029496 -0.18162782 -0.18729374 -0.34311226 0.6664191 -0.34323573 -0.34233746
-0.32488525 0.5005784 0.17293125 0.41205367 0.0138049135 -0.07682637 -0.17660724 1.026945
-0.23681116 0.123629056 0.20237002 0.3208418 0.10086742 0.12426461 0.6982839 0.36322838
0.16607392 0.07994388 -0.20067607 0.28980863 0.12498659 0.2604591 0.15245666 0.22012947
0.5995322 0.49774665 0.293823 0.14930983 0.56274766 0.2830532 0.3149556 -0.15417261
0.048212063 0.17017233 -0.19067937 0.35768333 0.15868485 0.15216151 0.26431844 0.29289582
0.3912974 0.55327797 -0.45607194 -0.20871806 0.02047818 -0.31270778 0.630363 0.08126528
0.21904317 0.1413735 -0.20931284 0.12128684 0.0566573 -0.19162172 -0.15302262 -0.19148195
-0.19277504 0.18166041 0.42830524 0.008711109 0.39058447 0.30147183 -0.2909185 -0.029016016

l1.bias f4 [8]
00000000: 504c 203e 801c 1b3f 5628 2c3f 5ec8 b73e
00000010: 5c04 443e d2ca 10be b4a6 263f aac5 683f
0.15654111 0.6059036 0.6724905 0.35895056 0.19142288 -0.1413987 0.6509812 0.9092661

l2.weight f4 [8, 8]
00000000: 8255 8b3f fe99 333f d293 20bf 099b 8d3f
00000010: 79e2 843f 84e4 c3bd 3aaa 103f 99dd 09bf
00000020: d607 0abf d908 7dbf 6356 843f 8e3e 813f
00000030: 5f00 4ebf bbe7 57be 4fea cd3e 6597 ca3e
00000040: 4747 82bf 7d0f 583f 4a22 333e 7607 73bf
00000050: 38f6 b8be 81f1 343e aca5 3e3f 8acb b23f
00000060: 1198 9c3d fe6c 0abe 90b5 573f 4a0c 65be
00000070: 1a43 04be f818 98be 2019 823f bcd6 8abe
00000080: e0f9 d0be 2ba9 203f 0a7b 163f 91e0 a2bf
00000090: 64ce ca3e 7861 023e 4999 d43e 0ae8 4abf
000000a0: 265f 0e3e 6e74 a73e f2a2 a13f 650d 1e3e
000000b0: c320 a93e 97eb c23d 25d1 16bf 86b6 11bf
000000c0: 107d bfbd 601e 0a3c c453 92be 3c1d 6cbe
000000d0: b81a aabe ae8a f4bd c0b5 ec3d 50d9 c63c
000000e0: bbff c83e 5da8 863f 1dd9 ef3e c4c3 5c3f
000000f0: 4095 e13e 66b6 39be a7a9 bcbf 7398 3a3f
1.088547 0.7015685 -0.62725556 1.1062938 1.0381614 -0.0956507 0.56509745 -0.53853756
-0.53918207 -0.98841625 1.0338863 1.0097215 -0.80469316 -0.21084492 0.40217826 0.3956863
-1.0178002 0.84398633 0.17493549 -0.9493326 -0.3612535 0.17670251 0.74471545 1.3968365
0.07646192 -0.1351814 0.8426142 -0.22367969 -0.12916222 -0.2970655 1.0163918 -0.27116954
-0.4081564 0.6275813 0.5878149 -1.2724782 0.3961059 0.12732494 0.41523197 -0.79260314
0.13903484 0.32706016 1.2627852 0.15434797 0.33032808 0.095175914 -0.5891288 -0.56919134
-0.09350026 0.0084300935 -0.28579533 -0.23058027 -0.3322351 -0.119405136 0.115581036 0.024273545
0.39257607 1.052013 0.46845332 0.86236215 0.4405918 -0.18135986 -1.4739274 0.7288887

l2.bias f4 [8]
00000000: bd46 89be 42e7 603f c2a7 233f fb26 e93e
00000010: da05 34be 229a dc3d 60ea cfbd 104d 013f
-0.26811782 0.8785287 0.63927853 0.45537552 -0.17580357 0.10771586 -0.10152125 0.50508213

l3.weight f4 [6, 8]
00000000: 1275 62bf c265 a3be 1d2f 323f 6f01 98bf
00000010: b564 28bf 7222 8bbf d848 403d d548 233f
00000020: c3ad 2cbf 0986 0e3f 1a7e 173f 3ca2 763f
00000030: de65 94bf 3e95 93bf 1d6f 9fbe b559 c0bf
00000040: bb24 a93e 93c0 63bf 8cfd 87bf 32f6 9bbf
00000050: a3ce 09bf 1c11 023f 42fb 433e 1c65 c73e
00000060: 33f0 49be 9a23 93bf 2409 aa3a 27b1 153f
00000070: a7de 563f 4a52 be3e fd30 a03e 0fa6 6cbf
00000080: 3a1b 373f 4ec6 4fbf a8ee c6bf 383e e43e
00000090: c93a e4be cb31 02bf c974 b13e f548 2abf
000000a0: a6be 12bf 46fd 283f 4734 98bf 77b4 9f3e
000000b0: 003c c9be d2d5 2f3f bc18 42be 31d0 e43c
-0.88459885 -0.31913573 0.6960314 -1.1875437 -0.65778667 -1.0869887 0.04694447 0.6378301
-0.6745264 0.5567327 0.5917679 0.963413 -1.1593587 -1.152992 -0.3113946 -1.5027376
0.33035836 -0.8896572 -1.0624251 -1.2184508 -0.5383093 0.50807357 0.19138816 0.38944328
-0.19720535 -1.149524 0.0012972695 0.5847344 0.8393349 0.37172157 0.31287375 -0.92440885
0.7152592 -0.81161964 -1.5541582 0.4457872 -0.445761 -0.5085723 0.34659413 -0.66517574
-0.57322156 0.66011465 -1.1890954 0.3119237 -0.3930359 0.6868564 -0.18954748 0.027931305

l3.bias f4 [6]
00000000: be5a a23e d455 4d3e 3a82 903d 962e 423e
00000010: 17e1 5e3d 98bb 8fbd
0.31709856 0.20052272 0.07056089 0.18963084 0.05441388 -0.070182025
