data.pth (torch, 6231 bytes, 6 tensors)

l1.weight f4 [8, 80]
00000000: c3ff 29be 9ccd b43e 57d9 bebd cf66 edbd
00000010: e5d7 b63c 7baf 8ebd b7ea 113f 24db d53d
00000020: 3c37 3e3e 2629 05bf b5fd 81be df01 a3be
00000030: fafd 0a3c 1f29 8abe 53f9 11be 88e8 b5be
00000040: 2f6e 2c3f 1795 c63e 2387 0a3f 7eb8 103f
00000050: 7321 97bc c720 8e3e a5e1 dc3e 30c1 ebbe
00000060: f5a9 7f3e e55d 05bf c671 adbd 7530 ec3e
00000070: fbaa a5be e52b ee3e c1a9 033f 3de2 753f
00000080: f704 f33e 653d d5bd 9a59 bbbe 2e92 c13e
00000090: 58fb e5be ee3f cdbe 6802 2c3f 07b6 07bf
000000a0: 6b82 923e 0a88 a9bd 11e8 273f a4b2 e43e
000000b0: 5d60 81be 0a6a 523d aeb8 aa3e d67b 443e
000000c0: 8611 7d3f 5e9b 3a3e 8650 f93e e79f 66bc
000000d0: 3195 04be 67a9 77be c3bc 8abe e997 923e
000000e0: e6b3 563f 814e 7dbd 91a3 f6be 859c 003f
000000f0: 66b0 e53c 29bb 94bd c341 403e 08d9 f6bd
00000100: c022 05be bc4f 193f 7ca4 a33e 6e68 02bf
00000110: 09da dfbe ebe9 b03e 297c 2abe 0ecd 59be
00000120: 585f cc3d 09f7 7e3d 766a 0d3f 0930 4fbd
00000130: 9817 e73e ca6c 40be e89b e83e 7a5e c0be
00000140: 65c9 97bd 6442 213f 91f2 c4be 06d6 02bf
00000150: cc22 4abe 1a3f 5bbe c5ee 6ebe 2e59 833f
00000160: 5645 b93e 4b6f 32bf 7551 33be 2bba cdbe
00000170: 6b9b 83be 61ba 94be 40f3 5c3f 7b97 09bf
00000180: 3798 3e3f 5055 c1bd 6ad7 1e3f 79e2 afbe
00000190: 24b8 493d 7eee 683d 0172 003f 53a3 683e
000001a0: 4879 433f 2e81 32bf d92e a1bd 62ef 703f
000001b0: 46af 29bf 154e 623f ec89 5b3f 387c 4a3f
000001c0: 41a8 a63d 04b2 c2bd ed3a e2be ee7a 823e
000001d0: 8b0d 1b3e 74f2 c0be 6c23 803d 4430 babe
000001e0: 182a 8a3c 5491 45be fcf3 033c a55d bd3e
000001f0: 9996 08be c451 56be ef89 a2be b567 35be
00000200: 16a0 053f 3b50 44be 3de3 a8be 1abc 80bd
00000210: 8930 2dbe 3497 96be c1fb 4cbe 80b0 c6bd
00000220: b7fc a03e 0257 9cbe 2f62 86be 9727 053f
00000230: 16fd 523d 80b9 37bb 3774 b2bd b385 c738
00000240: b90d 29bd fe16 0a3f 0360 b7be 3867 32bf
00000250: 834b 0cbf 0818 0e3f 1851 a53c a938 2e3e
00000260: 5e32 22be 20a7 81be ad3a a83e 249d b53e
00000270: 3e67 d33e 38ba 2b3d 6489 693e af61 4bbe
00000280: 485a 65bd 7802 0fbe e43c bb3e 078d d8bd
00000290: a697 2e3f d931 eabe 2033 aebe b055 383f
000002a0: 8b3e 323f 3f1e d9bd a9cd 2a3f f39c 4b3f
000002b0: 46b6 4c3f 5bc5 553f 507e 373f 7ca0 0cbf
000002c0: 4ddc 82bf c3b7 b03e 41b2 5fbf dd10 2b3f
000002d0: 451e 99be d468 b3be ddec 903b 4e75 2f3f
000002e0: befd af3e f8a3 8bbd 3274 febe b9cd 783f
000002f0: 352c 173f 1b05 783f fada 823f 87db 04be
00000300: af7d 063f e17d a0be 2f6e d3be ef1e 31bd
00000310: 0a83 1c3f 72d8 26bf 1b8f 08bf b842 b4be
00000320: c072 f3be 1466 d4bd 59ba 6a3f 7b64 d1be
00000330: 5274 ea3e 9d96 413f 39d5 0fbe 7719 d33e
00000340: 4a9b d0bd d358 a13e 29bd 053f 6b36 e4be
00000350: 91b9 243f ae77 353f 60de 403f 50f4 9a3e
00000360: 78a1 06be d447 76be a2f9 31bf 3fde 5cbf
00000370: 7359 77bd 4188 c5be c79f 99be 6e31 1dbf
00000380: ba0d 3fbd dd9b 543e df36 07bc 90c8 5a3f
00000390: fced 123f deb2 fbbe f071 9c3d 41c5 083e
000003a0: 14a2 453e 30af b03e 8d9e 7abd 92d3 44bf
000003b0: 8120 c2ba b89d febe 0de2 a73e fb53 343f
000003c0: e121 963e 20a4 063e 02ae 053f 688b 173f
000003d0: 57d2 44be ec16 1a3f 6273 3c3f da5b a5bd
000003e0: 0f1b 66be 182a ef3e 2f3b c1bd f9a7 70be
000003f0: 6c1e eb3d 716d 39be 12d8 073f 73e3 5f3f
-0.16601472 0.35313118 -0.09318798 -0.11591875 0.022319743 -0.06967064 0.5699877 0.104421884
0.18575758 -0.5201591 -0.25388876 -0.31837365 0.008483404 -0.26984498 -0.14255266 -0.3552897
0.67355627 0.38785622 0.5411245 0.5653151 -0.018448567 0.27759382 0.43140903 -0.46045828
0.24967177 -0.52096397 -0.08468966 0.4613072 -0.3235701 0.46517864 0.514309 0.9604834
0.47464725 -0.10412101 -0.36591798 0.3780684 -0.44918323 -0.40087837 0.6719117 -0.53012127
0.28615126 -0.082779005 0.6558848 0.44667542 -0.25268832 0.051370658 0.33344024 0.19187865
0.98854864 0.1822333 0.48694247 -0.01407621 -0.12947537 -0.24185716 -0.2709714 0.28631523
0.83868253 -0.061842445 -0.48171666 0.5023883 0.028038215 -0.072622605 0.18775086 -0.12053114
-0.13001537 0.5988729 0.3196143 -0.509406 -0.43721035 0.34553465 -0.16648926 -0.21269628
0.09979123 0.06224731 0.5524057 -0.05058292 0.45135188 -0.187915 0.45431447 -0.3757208
-0.0741146 0.6299193 -0.38466313 -0.51107824 -0.19739836 -0.2141079 -0.23333271 1.026159
0.36185712 -0.6970107 -0.17511542 -0.40181097 -0.25704512 -0.29048446 0.8630867 -0.53746766
0.7445101 -0.094401 0.62047446 -0.34352472 0.049247876 0.05686807 0.50173956 0.22718553
0.76356936 -0.6972836 -0.078702636 0.9411527 -0.6628307 0.88400394 0.8575733 0.7909579
0.08137561 -0.0950661 -0.44185582 0.25484413 0.15141885 -0.37684977 0.06256756 -0.3636495
0.016865775 -0.1929372 0.008053776 0.36985508 -0.13338698 -0.20929629 -0.3174586 -0.17715342
0.52197397 -0.1917123 -0.3298587 -0.062858775 -0.16913046 -0.29412234 -0.20017911 -0.097016335
0.31442806 -0.30535132 -0.26246783 0.52013534 0.051510893 -0.002803415 -0.087135725 9.513963e-05
-0.041272853 0.53941333 -0.3581544 -0.6968875 -0.5480272 0.5550542 0.02018027 0.17013802
-0.15839526 -0.2532282 0.32857266 0.3547145 0.41289705 0.04192564 0.22806317 -0.19861482
-0.055994302 -0.13965786 0.36569893 -0.10573774 0.6820015 -0.45741156 -0.3402338 0.7200575
0.69626683 -0.10601472 0.6672006 0.7953636 0.7996563 0.83504266 0.7167711 -0.5493238
-1.022348 0.345152 -0.8738137 0.66822606 -0.29905906 -0.35040915 0.0044227676 0.6853837
0.34373277 -0.06818384 -0.49698025 0.9718891 0.5905183 0.9688279 1.0223076 -0.12974368
0.5253553 -0.31346038 -0.41295 -0.04324239 0.6113745 -0.6517402 -0.5334336 -0.35207152
-0.47548485 -0.10371032 0.91690594 -0.40896973 0.4579187 0.7562044 -0.14046182 0.41230366
-0.10185869 0.3151308 0.5224176 -0.44572768 0.6434565 0.7088574 0.7533932 0.3026452
-0.13147533 -0.24050838 -0.69521534 -0.8627662 -0.06038804 -0.38580516 -0.30004713 -0.6140355
-0.04664395 0.20762582 -0.008252828 0.85462284 0.57394385 -0.49159902 0.07638919 0.13356496
0.19300109 0.34508657 -0.061186362 -0.7688533 -0.0014810712 -0.49729705 0.3278965 0.70440644
0.29322723 0.13148546 0.5221864 0.5919709 -0.19220863 0.60191226 0.7361356 -0.0807416
-0.2247126 0.46711802 -0.094351165 -0.23501576 0.11480412 -0.18108155 0.5306407 0.87456435

l1.bias f4 [8]
00000000: 4f32 053f f766 323f 4492 4c3f f365 8b3f
00000010: 430d 353f 8d6a 873f bc56 793e a324 4e3f
0.5202989 0.6968836 0.79910684 1.0890487 0.7072336 1.0579392 0.24349493 0.80524653

l2.weight f4 [8, 8]
00000000: 698b 00bd 10e7 d3be 2e2d 533d 5b58 b03c
00000010: 0154 3ebe 1eb3 5f3c b622 143d b511 42be
00000020: 5e31 0c3f f517 aa3e 0785 7c3f 3ce3 943f
00000030: b898 52bf 7691 9ebf 2f1f d1be 2c9c 823f
00000040: a943 ed3e 8276 a53f 17e6 b43e a4c9 183f
00000050: 5604 553f 889c 8f3e 6787 3cbf 1d94 68bf
00000060: 8dad d9bc e6c1 3bbe 1a31 0f40 6a05 d13e
00000070: bd40 83bf 4b9d 4b3f 4265 94bf 0ab5 d23e
00000080: ca85 f5bb 1b32 20be aaca b1bd 6ab5 56be
00000090: c45d 12be b355 46be a04c 633e a8e4 113e
000000a0: 0c12 653f 791e bc3f 6153 22bf d032 9ebe
000000b0: d425 fd3e d9ec 803f e8e8 933f f461 723f
000000c0: 1432 f53e ae81 35bf d674 01be adaa bd3f
000000d0: 5109 c13e b408 a0bf 26a4 d83e 8192 9b3f
000000e0: 2edb a5bf 1361 20bf dfc9 a53c 8466 7a3f
000000f0: 2ca1 f63f 9c61 913f f08f 873e e29d 333f
-0.031382952 -0.41387224 0.05155676 0.021526506 -0.18586732 0.013653545 0.036165915 -0.18952067
0.5476283 0.33221403 0.98640484 1.1631846 -0.8226428 -1.2388141 -0.40844104 1.020391
0.46340683 1.2926791 0.35331795 0.5968268 0.8320974 0.2804911 -0.7364411 -0.90851
-0.026572013 -0.18335685 2.237372 0.40824443 -1.0254132 0.79536885 -1.1593401 0.41153747
-0.0074927555 -0.15644114 -0.08681233 -0.20967641 -0.14293581 -0.19368629 0.22197199 0.14247382
0.8948066 1.46968 -0.63408476 -0.30898142 0.49442923 1.007228 1.1555452 0.94680715
0.4788977 -0.70901 -0.12642226 1.4817711 0.3770242 -1.2502656 0.42312735 1.2154084
-1.2957513 -0.62648124 0.020237861 0.97812676 1.9267936 1.1357913 0.26477003 0.70162785

l2.bias f4 [8]
00000000: 3f0c 1fbe 895a 873d e180 ad3e 980b 663f
00000010: ec6d 89be b296 29bd 512f 043f 30d2 8b3f
-0.15532015 0.06609065 0.3388739 0.8986144 -0.26841676 -0.04140348 0.516347 1.0923519

l3.weight f4 [10, 8]
00000000: e1ec 68be 5052 a73e b7aa 233e 7b9d 31bf
00000010: ae4c 913e 3da5 753e c625 593e a740 50bf
00000020: 6fbc 693e 6d5c f13d 0a81 ccbf ac21 72bf
00000030: 2405 97be c4de 65bd daf0 313f b32d e13c
00000040: c993 bb3d 0651 fcbf 25ee fdbd 7bf2 c63d
00000050: de4c 893e c671 39bf 068f 113d f465 723f
00000060: db97 9b3e e7a8 1abf 2c3f 183f 8a4f e23e
00000070: f8d0 a43e 313c 2c3d 98b5 e1bf 413c f93d
00000080: b8fc 9ebd 94c8 60bf 9560 87bf bf23 9cbf
00000090: 1811 73be 9d5d 293f b8c0 99bf 7c42 1f3f
000000a0: eab5 b5be 6d70 a23d 4c61 673e f35b 913f
000000b0: 9cf1 d1bd 1af7 0ec0 279d a5bf 923f 5bbe
000000c0: 628c b2be 96c6 3f3d 74a0 f13e e65f 8dbf
000000d0: 03b7 153e 1d99 d3bf 02f0 0e3f 044c c43e
000000e0: 5821 0b3e 079e 4abf da5f 073f 5f9a 91bf
000000f0: 482d 2ebd 788a 8a3f 5172 79bf 625b 18bf
00000100: 88f2 2cbe f706 273f fddc 08be c9ba 3f3f
00000110: 8fdc 9d3e 758c dfbd 7066 893e be4a 04c0
00000120: f380 973e 5338 243f 529e 7cbf e479 e33e
00000130: 5fe4 653d 2af4 9cbf 16e4 ac3e c885 0f3e
-0.22746612 0.32679987 0.15983091 -0.6938092 0.28378814 0.23988815 0.21205816 -0.8134865
0.22825788 0.11785207 -1.597688 -0.9458263 -0.2949611 -0.05612065 0.69508135 0.027487611
0.09159047 -1.9712226 -0.12398938 0.09714218 0.26816458 -0.7243923 0.03553679 0.9468682
0.30389294 -0.60413975 0.5947139 0.44201308 0.3219068 0.04204959 -1.7633543 0.12169696
-0.07763046 -0.8780606 -1.057635 -1.2198409 -0.2373699 0.6615847 -1.2011938 0.6221082
-0.35490352 0.079316 0.2259571 1.1356186 -0.102511615 -2.233832 -1.2938584 -0.21410969
-0.3487273 0.046820246 0.4719273 -1.1044891 0.14620595 -1.6531101 0.5583497 0.38339245
0.13586938 -0.7914738 0.5288063 -1.1375235 -0.042523652 1.0823507 -0.9744006 -0.5951444
-0.16889393 0.65245 -0.1336555 0.74894387 0.30832335 -0.10915462 0.26835966 -2.067062
0.29590568 0.64148444 -0.9867908 0.44428933 0.056125995 -1.2262013 0.33767766 0.14015877

l3.bias f4 [10]
00000000: 79ed 9cbe d22d 29bd 4f71 213d b942 163d
00000010: 2578 213e 46b8 0b3f 9978 b13d 51c2 233e
00000020: d343 88bd a230 cbbe
-0.30649927 -0.041303463 0.0394147 0.036684725 0.15768488 0.54578054 0.0866558 0.15992095
-0.066535614 -0.3968554
